bot/data.pth (torch, 5727 bytes, 6 tensors)

l1.weight f4 [8, 63]
00000000: 1e8c 0f3f 725e 3abe fdd5 423e c3d9 cabd
00000010: 8dfb 01bf 4e28 c53d afaa 5b3e 0747 803e
00000020: 0ea4 583f bb9f 713d 726d 7d3e 03b3 5bbe
00000030: 69e5 903e 5f19 da3e f832 a0be 7ae6 67be
00000040: ff5a b9be 9baf b9be abdd 9cbe f417 2cbc
00000050: 3b25 033f b202 683f e568 33be c85f 263f
00000060: 8972 873e 2f48 003f aa77 1d3f 88da 503e
00000070: b4d2 78be 3527 973e 8e6e 9dbe 1d8a aabe
00000080: 6f5a 39be fecd b5be bb05 023f 0908 adbe
00000090: 1d6d d33e abc9 103e b7e1 48be 160f 7cbe
000000a0: f1ed 833d fa6d 92be 4e03 67be 8d96 7fbe
000000b0: 44bf dfbd 9216 1bbd 3f0d 023e 7c3d ee3e
000000c0: 0f06 b0be 7231 a0be 593e 1abe aae2 9bbd
000000d0: 5956 71bd eaca 5bbe b4b9 4f3f d9a5 b13e
000000e0: df8d 8a3e 9d74 c23b 075a bdbe c19b 16be
000000f0: 60f6 68be 426a 493d 8249 6a3e e579 1fbe
00000100: 22b9 833e 7f91 a8bd e274 3e3e 1efe ed3e
00000110: f8c4 803e c684 0f3f 5b32 6f3e d66e 373f
00000120: 4e64 a4bc e72c 3dbe ba01 90be bd4c 51be
00000130: 1d99 d83e 5653 073f 30e9 453e 4e2f 293f
00000140: 2a93 2d3f 5c86 733e 8d40 013f ee30 133f
00000150: 16f5 2d3f af0d 0a3e 3030 2d3f 0969 adbe
00000160: a1fc 1b3f 10d0 353f b8e9 473f aac0 fe3e
00000170: c936 bc3e d165 9fbe cf8f 253e 0191 95be
00000180: f3b4 833e 12c0 0f3f 1195 133f dcdc cfbd
00000190: cb6b 3dbd 1fe4 503e 1de3 df3e 3af5 b33e
000001a0: 1992 073f 4a61 07bd 9afa 953e 9da8 84be
000001b0: f3a7 99be 8bec cebe 988d 103f 45d1 4cbe
000001c0: 52f8 9d3e d3c1 5f3e 1969 523e 3313 0a3f
000001d0: cfce 873e 1e23 42bf 9e1e 87be f4ab e83d
000001e0: 6939 c53e e15e e4be f9a4 b23e 858b dabe
000001f0: d93f 08bf 526c 5db8 e905 68be b3e3 80be
00000200: b386 273e 620f 373e 1f21 163f 322c 8e3e
00000210: 89f3 b13e cce4 fa3e 6ae9 303f 14d7 af3e
00000220: e6da 8f3e e7e6 543e 6309 0a3e f342 883e
00000230: f17f a6be edc2 733d e2d3 5abe 237c 0d3f
00000240: 7410 e2bd 1b4c c0be 2f69 d43e 19dd 1d3f
00000250: 9d3d b63e 3e1f 0a3f fb85 6abe 2983 223f
00000260: 2953 203f 5411 8b3e 3189 a73e 8819 aa3e
00000270: f47d 4d3e e631 aabe 3e73 07be 0765 7cbe
00000280: dabd de3e 0366 aebe b60f 98bd 353b a13e
00000290: aeaa 9bbe 5066 7c3e 035a 48be 962b fe3e
000002a0: dbcb 2b3e cfef cb3e fd52 5c3e 2de1 933d
000002b0: 9832 c33d 0ef1 ac3e 6a61 9b3e ce75 a6be
000002c0: ff22 5cbe 352d f73e f131 05be 5626 debd
000002d0: 01c4 40bf 2496 90be 2c17 4f3e 3423 113e
000002e0: 9ac4 6a3e 9e95 69be 477f 203e 04c7 cfbd
000002f0: 053c 0b3e b0f1 ff3e f24b 583e 48fc 77be
00000300: a0ac df3e bac9 1d3f f695 bd3e 9b23 073f
00000310: 1e60 dabb 9b78 04bf 2b42 07bd f420 00be
00000320: 73a5 b5be d309 50be 262e d73e 4e99 2dbe
00000330: 9f78 96be 845b 7bbe f0e8 463f 1811 b93d
00000340: 4b5b 92be 1883 163f 6655 eabe e56f 853e
00000350: 46b5 3f3f 34d2 d43e db7c 253f 9b50 233f
00000360: bd84 b73e 25cb e23e c1be e33e ead2 0ebf
00000370: d7eb 8a3e 99e9 6ebe 6ce2 d03e f12e cebe
00000380: 7bcf 81be 8534 a13e 832c bbbe d1df 463e
00000390: e13e fd3e 8b78 5ebe af7c 2d3f c1c8 213e
000003a0: 0241 073f 78ce 07bf fbf3 d4be 5f5c cfbe
000003b0: 4b38 d9be f6e2 99be d453 58be 57d1 813e
000003c0: 8385 c43e 431e 8fbe b105 153c ef76 623f
000003d0: d899 733e 6246 183e 1220 7a3e 3350 9dbe
000003e0: 07bd 8cbe 4ffa 9ebe f9b2 c6be 9f94 d33d
000003f0: f136 bf3e 50ba a13e 2e73 863c 0f0a f4bd
0.56073177 -0.1820009 0.19026943 -0.09904816 -0.5077446 0.09626828 0.2145183 0.2505419
0.8462533 0.05899022 0.24748781 -0.21455006 0.28300026 0.42597482 -0.31288886 -0.22646514
-0.36202237 -0.3626679 -0.3063787 -0.010503758 0.51228684 0.9062911 -0.17520483 0.649899
0.2645457 0.50110143 0.6151072 0.20395863 -0.24299127 0.295221 -0.3074841 -0.33308497
-0.18100904 -0.35508722 0.50789994 -0.33795193 0.41294184 0.1413943 -0.19617353 -0.2461513
0.06441868 -0.2859953 -0.22559854 -0.24959774 -0.10925153 -0.03786332 0.12700365 0.46531284
-0.34379622 -0.31287724 -0.15062846 -0.07611592 -0.05892024 -0.21464124 0.81142735 0.34696844
0.27061364 0.0059343115 -0.36982748 -0.14707853 -0.22750235 0.0491736 0.22879604 -0.15573843
0.25727183 -0.08230876 0.18599275 0.4648294 0.25150275 0.5606197 0.23359053 0.716535
-0.02006736 -0.1847416 -0.28126317 -0.2043943 0.42304316 0.52861536 0.19327235 0.66087806
0.6780268 0.23781723 0.5048912 0.57496536 0.67952096 0.13481782 0.67651653 -0.33869198
0.60932356 0.71020603 0.78091 0.49756366 0.36760548 -0.31132367 0.1616814 -0.29212192
0.2572399 0.5615245 0.5764933 -0.101495475 -0.046245378 0.20399521 0.4372796 0.3514803
0.529573 -0.033051766 0.29292756 -0.25909892 -0.30010948 -0.40414843 0.56466055 -0.20001705
0.30853516 0.21851282 0.20547904 0.53935546 0.2652497 -0.75834835 -0.26390547 0.113609225
0.38520363 -0.44603637 0.3489149 -0.4268457 -0.53222424 -5.2791387e-05 -0.22658505 -0.2517372
0.16359977 0.17876962 0.5864429 0.27768093 0.34756115 0.49002683 0.6910616 0.3434378
0.28096694 0.20791207 0.13480143 0.26613578 -0.32519487 0.059512068 -0.2136989 0.5526754
-0.110382944 -0.37558064 0.414865 0.61665493 0.35593882 0.5395392 -0.22902672 0.63481385
0.6262689 0.27161658 0.32721856 0.33222604 0.20067579 -0.33241194 -0.13227555 -0.24647914
0.4350422 -0.34062204 -0.074248716 0.31490484 -0.30403656 0.24648404 -0.19565587 0.49642628
0.16776983 0.39831397 0.21516033 0.07220683 0.09531134 0.3377766 0.3034776 -0.32511753
-0.21497725 0.48276678 -0.13007332 -0.10847156 -0.7529908 -0.28239548 0.20223683 0.14173585
0.2292656 -0.2281098 0.15673552 -0.10145381 0.13597114 0.4998908 0.21122721 -0.24217331
0.4368639 0.61635935 0.37028474 0.52788705 -0.00666429 -0.5174653 -0.033022087 -0.1251257
-0.3547779 -0.20316248 0.42027396 -0.16953012 -0.29388902 -0.24546629 0.77699184 0.090364635
-0.28585276 0.58793783 -0.4576828 0.2606193 0.74885976 0.41566622 0.6464364 0.6379487
0.3584346 0.44295612 0.4448147 -0.5579058 0.27133057 -0.23331298 0.40797746 -0.40270188
-0.25353608 0.31485382 -0.36557397 0.19421317 0.49462035 -0.21725671 0.6776838 0.15799238
0.5283357 -0.5304942 -0.41592392 -0.4050016 -0.4242576 -0.3005597 -0.21125728 0.25355026
0.3838311 -0.27952775 0.009095595 0.8846273 0.23789155 0.14870599 0.24426296 -0.3072525
-0.27487966 -0.31050345 -0.3880842 0.103310816 0.37346604 0.31587458 0.016412344 -0.11915981

l1.bias f4 [8]
00000000: 2e29 5e3f 4024 423f 76e6 3c3f 8960 4c3f
00000010: 5a20 173f 6196 293f 1516 1f3f 5470 723e
0.86781585 0.75836563 0.73789155 0.798348 0.5903374 0.66245085 0.6214307 0.23675662

l2.weight f4 [8, 8]
00000000: dad4 f73e e617 d53e 2438 443f c02c 57bf
00000010: 93ab 9e3f 95cb 57bf 56cb 833f eb99 89bd
00000020: 4288 ad3e e609 70bf 00c2 c13e fb28 7e3e
00000030: 8784 8b3f 4072 883f a8bb 9a3f 2c10 923f
00000040: ab5b 0dbf a3d4 a53f 9f28 8c3f 756b 343f
00000050: 5ce8 61bf 4935 1e3f 4bf2 e0bd 7eef 473e
00000060: 59f2 3c3f 9261 383d 4126 a63f 6b61 323e
00000070: 3de2 95bf 6529 c73d 9bdc 4c3f c726 3a3f
00000080: 111b 943f e91b ce3d 3019 bb3e 3a71 973f
00000090: 5a05 abbd a5aa a2be 0cad c6be 216d 94be
000000a0: 9275 163e 366c 843e 547e 64bf 898e 183f
000000b0: b239 9ebe de9e a83f 7b19 8f3f 97e8 77be
000000c0: 4438 c83f 3ca4 283e bb11 01be 554e 5cbd
000000d0: 22a6 923e aabc ad3f 87a5 84be 9614 2ebe
000000e0: cfd5 f43e 1418 b73f 00a7 323f 3905 763f
000000f0: 30a6 0fbc 01f5 8bbd e63a 0bbf 5c5f 31bf
0.4840458 0.41619796 0.76648164 -0.8405266 1.239611 -0.84295017 1.0296428 -0.06718811
0.3389302 -0.93765104 0.37843323 0.2482032 1.0899819 1.0659866 1.2088518 1.1411185
-0.55218 1.2955517 1.0949897 0.70476466 -0.8824518 0.61800057 -0.10983714 0.19524953
0.73807293 0.045014925 1.2980424 0.17419975 -1.1709667 0.09724692 0.8002412 0.7271542
1.157076 0.10063917 0.36542654 1.1831429 -0.0835063 -0.31770816 -0.388039 -0.2898951
0.14693287 0.25863808 -0.8925526 0.5959249 -0.30903393 1.3173482 1.1179651 -0.2420982
1.5642171 0.164689 -0.1260442 -0.05378564 0.28642374 1.3573201 -0.25907537 -0.1700004
0.47819373 1.4304223 0.6978607 0.9610172 -0.0087676495 -0.0683384 -0.54386747 -0.6928613

l2.bias f4 [8]
00000000: 9fc8 de3e 7f32 fa3d 55b5 bd3e b5c9 08be
00000010: 8a60 fb3e 1953 063f 121a 80bd 2f1b de3e
0.43512437 0.122166626 0.37052408 -0.13358195 0.4909709 0.52470547 -0.062549725 0.43380114

l3.weight f4 [8, 8]
00000000: 50c7 10bf 9ddb 8dbf eb27 3e3f eca0 773e
00000010: 3284 3a3f d073 9abf acb5 bcbf 311b 413f
00000020: 363d 9bbf 6359 8abf 66b6 353f 6539 7cbf
00000030: 10ec 55bf 74df b83e 1e94 023f 88e4 a83e
00000040: f96c 383f e0ab eabc 62ed b43d b18d a9bf
00000050: f966 0b3e a45d 2b3f eae3 97bf 2c4e 893c
00000060: 70c0 873f ca1f 68bf 1eb8 2cbd c7f4 7c3d
00000070: 8c2d a93e 38d0 e3bf 5eef 8c3e 2923 c83e
00000080: 61c5 1fbf 4cf0 67be a115 cd3e 7531 433f
00000090: 981d 5f3e ef52 28be 8f9e bd3d d136 19bd
000000a0: e86f 5e3f 60c3 233f 560d 80bf 0288 073e
000000b0: cd1e 26bf 245a a4bf a62e 8bbf 40ab 57bf
000000c0: 19e5 963d 134d a03e c895 8abc 587d 223f
000000d0: cd37 bbbf 2a88 983c 23b8 a23e a0f9 86bf
000000e0: 4688 9ebf 8672 cb3e 2213 e9be 261e 91bf
000000f0: 7c9f d33e af90 203e 186b 383f 44d8 32be
-0.56554127 -1.1082646 0.7427966 0.2418248 0.72857964 -1.2066593 -1.4742942 0.75432116
-1.2128055 -1.0808529 0.7098144 -0.9852508 -0.8356333 0.3610798 0.5100726 0.32986856
0.7204128 -0.02864641 0.0883434 -1.3246366 0.136135 0.6693976 -1.1866429 0.016760908
1.0605602 -0.90673506 -0.042167775 0.061756875 0.33042562 -1.7797918 0.27526373 0.39089325
-0.6241055 -0.2265026 0.40055564 0.7624734 0.21788633 -0.16437887 0.09258758 -0.037405793
0.86889505 0.63969994 -1.000407 0.13235477 -0.6489075 -1.2840009 -1.0873611 -0.8424568
0.07367916 0.31308803 -0.016917124 0.6347251 -1.4626404 0.018619616 0.3178111 -1.054493
-1.2385337 0.39735812 -0.4552241 -1.1337326 0.41332614 0.15680192 0.7203841 -0.17465311

l3.bias f4 [8]
00000000: fcdb 8cbe 44a5 39be cd00 073e e610 ddbd
00000010: 520c 91be c40c 8b3e 8f64 5fbd 7a20 71be
-0.27511585 -0.1812945 0.13183899 -0.10794239 -0.28329712 0.27158177 -0.05453926 -0.23547545
