bot/data.pth (torch, 5791 bytes, 6 tensors)

l1.weight f4 [8, 63]
000000 8d 41 03 3f c8 ff 38 bd cc da 09 3f 5c d6 da bd
       0.512719 -0.045165807 0.5384948 -0.10685417
000010 c3 a9 a5 be 8a 7e 73 3d f0 40 ae bd 41 86 60 3e
       -0.3235608 0.05944685 -0.085084796 0.21926214
000020 2b 47 55 be fd 61 9d 3d 2f fd 07 3f f3 17 11 3f
       -0.2082793 0.076847054 0.531207 0.5667717
000030 90 66 09 3f 41 d0 1b be dd ce 51 be fd c8 60 3e
       0.5367212 -0.15216161 -0.20489068 0.21951671
000040 b2 b7 54 be 34 00 d8 be e8 5e 00 be c6 b5 37 be
       -0.20773199 -0.42187655 -0.12536204 -0.17940435
000050 20 5a 5e bd 9b f8 95 be 65 43 fc 3d 40 59 b1 bd
       -0.05428517 -0.29291233 0.12317542 -0.08659601
000060 90 30 b3 3e 6d a9 0a be 8d 41 37 be 12 37 8d be
       0.34997988 -0.13541193 -0.178961 -0.27581078
000070 80 ce c5 bc 2b 1d b8 3c 7c bf 68 3e f7 c5 15 bf
       -0.024146318 0.022474846 0.22729295 -0.58505195
000080 d1 df 70 3e 7e fd 16 bf ac 11 bf be d6 0f 0c be
       0.23522879 -0.5898055 -0.3731817 -0.13677916
000090 df b8 b7 3e cf 15 d0 3e 20 78 37 be c4 a8 ed bd
       0.35883233 0.4064164 -0.17916918 -0.11604455
0000a0 d5 6e 4f be be 4a 74 be 5c 62 5d 3d 62 64 45 be
       -0.20257123 -0.23856637 0.05404888 -0.19276574
0000b0 9c 27 30 3f 45 07 17 3f 53 21 09 3f df e3 a5 be
       0.6881044 0.5899547 0.53566474 -0.32400414
0000c0 43 e1 a0 3d f7 18 4a be 42 f3 c9 bd 8e ff 74 be
       0.07855465 -0.19736086 -0.09860851 -0.23925611
0000d0 5b ca 82 3e e4 b1 22 be cb e2 54 3f 38 c4 ea 3e
       0.2554501 -0.15888172 0.8315856 0.45852828
0000e0 ec 71 f2 bc cd 5d fb bd c4 1f f4 3d 3c e7 2e be
       -0.029595338 -0.122737505 0.11920121 -0.17080396
0000f0 4a ee 92 3d b8 73 fb 3e 8b 7d e0 3e b1 19 e5 bc
       0.07174356 0.49111724 0.43845782 -0.027966352
000100 4b dc c7 3e 09 70 3f bf 8a c8 8c 3e 4d d0 45 3f
       0.39035258 -0.7478033 0.2749675 0.77270967
000110 9e 9c 01 3f 21 c7 a6 be 1f 47 bd bd dd 08 87 be
       0.50629604 -0.32573798 -0.09242081 -0.2637395
000120 43 3e 9b 3e 49 27 04 bf 83 78 1f bf 3a ad 00 bf
       0.3032094 -0.51622444 -0.6229326 -0.5026432
000130 0e 7b bd be 11 06 8c be 2e 4a be 3e ae 70 71 bd
       -0.37007946 -0.27348378 0.3716597 -0.05894535
000140 56 85 7d 3f 4a 42 0f 3f 20 13 8c be 06 cd 70 be
       0.9903158 0.55960524 -0.2735834 -0.2351571
000150 12 ce 9f be 74 6e 44 3f a5 16 17 bf db a0 55 3e
       -0.31211907 0.7673104 -0.5901893 0.20862143
000160 ee 8f f4 be d8 e4 2d bf b0 e5 18 bf 56 22 1c 3f
       -0.4776606 -0.6792731 -0.59725475 0.6098989
000170 5a e8 55 be 33 64 3c 3f aa db 02 3f 93 39 03 3f
       -0.20889416 0.7359039 0.5111643 0.51259726
000180 7c 70 ab 3e f1 cd 67 be 62 39 63 3c e0 4c 17 bd
       0.33484256 -0.22637154 0.013868662 -0.036938548
000190 dc 1e 57 bf 52 0d 1d 3f 15 1f 25 3f f0 f6 e0 be
       -0.8403146 0.6134845 0.6450055 -0.43938398
0001a0 4b d6 56 3f 09 07 0f 3f d8 00 15 3f 54 54 00 bf
       0.83920735 0.5587011 0.5820441 -0.50128675
0001b0 f1 77 1f bf 04 1b 1c bf d6 84 46 be cd 22 40 3f
       -0.6229239 -0.6097872 -0.1938661 0.750531
0001c0 05 1f b6 bd d3 32 a6 3e d9 69 da 3e fd c2 11 bf
       -0.08892635 0.3246065 0.4265888 -0.56938154
0001d0 07 9e 10 3f 8f a9 b8 3e 17 9e ff 3d 8f f2 73 3e
       0.5649113 0.36066863 0.12481325 0.23822998
0001e0 d5 1f 87 3e b0 1a 3b 3f 3e e3 67 be e5 8f dd 3e
       0.26391473 0.73087597 -0.2264528 0.43273845
0001f0 c1 f9 11 bf b9 7b a7 3e fa 83 19 3f a2 18 20 3f
       -0.5702172 0.3271158 0.59967005 0.62537587
000200 68 6b 16 bf 75 27 00 3b 23 9d 92 be af 7d 5e be
       -0.5875764 0.0019554768 -0.2863551 -0.21727632
000210 61 8e 9a 3e 74 fc 55 bc 00 17 47 bf 7a 65 96 bc
       0.3018675 -0.013060678 -0.7776947 -0.018358935
000220 c9 36 87 be c7 9a e6 be 27 51 cb be 01 ca c6 3e
       -0.26408985 -0.4503996 -0.39710352 0.38825992
000230 84 47 11 be dd d2 94 3d 89 a7 98 be 5b bb a6 be
       -0.14187437 0.072667815 -0.2981532 -0.32564816
000240 22 40 5a 3e f3 2b 16 bd 41 d0 e7 3e 53 19 47 bf
       0.21313527 -0.036663007 0.45276073 -0.77773017
000250 59 1b a3 3e 2e d8 0b 3f 4b ab db 3e d7 e0 0f 3f
       0.31856802 0.5462674 0.42904124 0.56202453
000260 4e f7 25 3f 80 a1 7a 3e 70 21 d6 be 46 99 c4 3e
       0.6483048 0.2447567 -0.41822386 0.38398188
000270 66 e6 cf 3e a4 de 3f 3e b8 94 34 3e 02 f8 c0 3e
       0.40605468 0.18737274 0.17634857 0.37689215
000280 2c 11 ee be 25 be 36 be 30 8a ed 3e 2e 72 06 bf
       -0.46497476 -0.17845972 0.4639449 -0.52517974
000290 ea da 53 3e fb 0a c3 bd 35 2e 00 be 40 df be be
       0.20688978 -0.09523579 -0.12517627 -0.372797
0002a0 d1 1d 82 3e 61 80 d8 ba 2e 44 fc be f3 cc 08 be
       0.25413373 -0.0016517752 -0.49270767 -0.13359432
0002b0 f1 fc 5f bd c5 3f 13 bf 5d 6b 0b 3f 27 48 11 be
       -0.054684583 -0.5751918 0.544607 -0.1418768
0002c0 c8 e1 9d 3e 3e 60 39 be be d3 ce be e1 7f b9 3e
       0.3083632 -0.1810312 -0.4039592 0.36230376
0002d0 9e cf 79 3f 10 78 fc 3e ac 0c e8 3e 9e 84 88 bd
       0.97582424 0.4931035 0.45322168 -0.0666592
0002e0 06 41 01 3f 96 90 03 be 04 0b ca 3e 6d 59 1c be
       0.5048984 -0.12848124 0.3946153 -0.15268488
0002f0 60 6d 86 3e bd 6f a8 3a 34 57 45 3e b4 8a e3 3e
       0.26255322 0.0012850683 0.19271547 0.4444176
000300 44 00 82 bd 1a 5b d1 be a5 e9 c0 bd 70 ed 9e 3e
       -0.06347707 -0.40889817 -0.09419564 0.31040525
000310 e1 61 09 3f 17 55 a5 be dd 3b 42 3c 62 ba 91 3e
       0.53664976 -0.3229148 0.011855093 0.2846251
000320 69 c6 d7 3e 59 3b 9e 3e e5 ff b8 3e c8 4a 1d 3f
       0.42143562 0.30904654 0.36132732 0.6144223
000330 ab b6 81 3e d3 10 29 3f d1 1b 09 bf 3e 97 5c 3e
       0.25334677 0.66041297 -0.5355807 0.2154207
000340 a8 10 1a 3f 27 36 07 3f bc e2 9b be 48 57 aa be
       0.60181665 0.52817005 -0.30446422 -0.33269715
000350 1e 41 16 3f 47 61 eb 3d a4 03 20 3f e1 2e 13 3f
       0.5869311 0.114931636 0.62505555 0.57493407
000360 73 3c 58 3f 12 b8 85 3e 72 f6 03 3f c8 df 8f be
       0.8446724 0.26116997 0.5154792 -0.2810042
000370 47 5d 2f 3e 08 ad 27 be 53 30 f2 3b 70 fc 84 be
       0.17125426 -0.163746 0.0073910146 -0.25973845
000380 2d 6f 3e 3f d4 32 03 3e 6b c7 c8 3e 79 bb 38 3e
       0.7438839 0.12812358 0.39214644 0.18040265
000390 33 c1 e9 be 5e d7 f8 3e b2 e5 a4 be cb 3e 34 be
       -0.45655212 0.48601812 -0.32206494 -0.17602079
0003a0 5e c4 ef be d4 aa 88 3e 49 f6 02 3f c7 07 c2 3e
       -0.46829504 0.26692832 0.5115705 0.3789656
0003b0 33 e4 6d be 95 9a ba be e2 eb 01 3f 95 e4 41 3e
       -0.23231582 -0.36446062 0.50750554 0.18934853
0003c0 c7 8a fe bd 68 43 35 3f 85 c0 a4 3e bb fb 47 be
       -0.124288134 0.7080598 0.3217813 -0.19529621
0003d0 4e 97 fe 3d bf b6 c9 3e 4d 31 fb bd aa 9f de be
       0.12431203 0.39397237 -0.12265263 -0.4348119
0003e0 ec 34 fc 3e 65 b8 b2 be 52 cc b7 3e ae 1a 71 3e
       0.49259126 -0.34906307 0.35898072 0.23545334
0003f0 45 4a a7 3e 29 87 a0 bd d9 7b 05 3f 6e 27 dc bd
       0.3267385 -0.0783828 0.521421 -0.10749708

l1.bias f4 [8]
000000 46 e4 0f 3f 1d b7 63 3f b3 18 47 3f da 1e 3b 3f
       0.5620769 0.88951284 0.77772063 0.7309395
000010 55 89 44 3f 4c d7 1b 3f 89 29 34 3f 6a dc 76 3f
       0.7677205 0.6087539 0.7037588 0.96430075

l2.weight f4 [8, 8]
000000 c9 e9 fe bd 36 01 93 bd 39 e6 18 3f e4 1c 82 3f
       -0.12446935 -0.07177965 0.5972629 1.0165067
000010 32 8f 29 3e cc f8 82 bf a1 cd 4f 3f 51 9e 37 3e
       0.16558531 -1.0232177 0.8117314 0.17931487
000020 28 26 82 bf 73 3e 4e 3f 62 64 44 bf 58 8b ba 3e
       -1.0167894 0.8056404 -0.7671567 0.36434436
000030 19 fc 5f 3e 31 f1 b8 be e1 0b 2a bf b7 06 b0 3f
       0.21873511 -0.36121514 -0.66424376 1.3752049
000040 24 fa 8b 3f 86 26 c3 3d 76 cf d3 3e 35 59 83 3e
       1.0935712 0.09528832 0.41369218 0.25653997
000050 01 3c 84 3f ac fb a1 3f b5 19 01 bf 14 a6 4b be
       1.0330812 1.2654929 -0.5042985 -0.19887573
000060 8e 65 0e bf 59 1f 8f 3f bf 0d 07 3f d0 21 4e bf
       -0.5562371 1.1181442 0.5275535 -0.80520344
000070 a6 b7 39 bf 21 61 8d 3f 23 58 d9 be ae 3f b1 3f
       -0.7254585 1.1045266 -0.42450055 1.3847558
000080 79 16 f7 bd 3d 33 e3 3e 55 42 ab 3f 71 e3 ba 3e
       -0.12064833 0.4437503 1.3379618 0.3650165
000090 dd b4 96 bc e4 38 2f be c3 59 2b 3f 17 7d d6 be
       -0.01839679 -0.17111546 0.6693384 -0.4189231
0000a0 56 49 13 3f 30 7f 12 bf c8 e5 97 3f db 75 ca 3e
       0.57533777 -0.5722532 1.1866999 0.39543042
0000b0 3e a6 2d 3f 2f 62 b1 3e b6 85 49 3f c2 61 a6 bf
       0.6783179 0.3464522 0.7871965 -1.2998583
0000c0 b4 30 91 3e fb 2e 46 bf 80 12 ab bf 83 c7 73 3f
       0.2835747 -0.77415437 -1.3365021 0.95226306
0000d0 58 e4 82 3f 1d fb 21 3f 93 38 b5 3f d5 af 20 3f
       1.0225935 0.63273793 1.415789 0.627683
0000e0 58 8a 73 bd 70 a6 d2 bd 72 71 07 3e 90 ff 82 bd
       -0.059458107 -0.10285652 0.1322687 -0.06396401
0000f0 88 05 ab be 28 77 b8 bd 2e c1 57 be c0 c4 ef 3b
       -0.33402658 -0.09007102 -0.21069786 0.0073171556

l2.bias f4 [8]
000000 a3 53 61 be 26 58 3d 3f 7a 12 69 be 1d 99 2b 3f
       -0.22004561 0.7396263 -0.22760954 0.6703051
000010 f5 91 01 3d 85 ea 30 3e e9 40 00 3f 70 b7 8d bd
       0.031633336 0.17276962 0.50099045 -0.069197536

l3.weight f4 [8, 8]
000000 4c d0 ac bf d3 1a 46 3f bb 4f c9 bf 2a 81 67 3f
       -1.3501067 0.7738468 -1.5727457 0.90431464
000010 6f 1e 8c bf 9d 2c 74 be 35 43 a2 bf 89 18 3e be
       -1.0946788 -0.23845144 -1.267676 -0.18564047
000020 cf 1a 12 3f ae 50 f8 3e 21 ab 96 be e2 d4 ab bf
       0.57072157 0.48499054 -0.29427436 -1.3424342
000030 ca 09 8f bf c8 0f 1a be 4e ce 86 3e 90 0b 42 3d
       -1.1174862 -0.15045083 0.26329273 0.047374308
000040 4a 1c d1 3e 5e 01 77 bc c3 7f b2 bf f2 42 47 3e
       0.40841895 -0.01507601 -1.394524 0.19459131
000050 5d 10 4e 3f bd 6a 30 bf 91 6d 72 bf 28 f2 a9 be
       0.8049372 -0.6891287 -0.94698435 -0.33192563
000060 40 a4 e7 bf 24 fa 99 3e ed 48 a6 be c9 2b 89 3e
       -1.8097 0.30073655 -0.32477513 0.26791218
000070 a1 b1 b1 bf d7 ec 47 bf 28 d7 27 3f 47 e4 ad be
       -1.3882333 -0.78095764 0.6556268 -0.33963224
000080 2c 57 5f 3f f4 f3 86 bf 44 ff 16 bf c4 19 90 bf
       0.8724239 -1.0543199 -0.58983254 -1.1257863
000090 15 73 15 3f f3 54 1a 3f 30 cd 28 3e b2 d7 35 3e
       0.58378726 0.6028587 0.16484523 0.17758062
0000a0 fb 33 84 bf a9 9f 8c bd 77 ee a4 3e ae c1 f7 3e
       -1.0328363 -0.0686639 0.32213184 0.48389953
0000b0 8c 7d 0f be b4 62 11 bf 19 d1 b9 bf db 63 0f be
       -0.14012736 -0.56791234 -1.4516937 -0.14002936
0000c0 ec 0f 78 bf 1f 66 82 bf c4 09 19 3f d8 07 a6 bf
       -0.96899295 -1.0187415 0.59780526 -1.2971144
0000d0 e4 b9 a2 bf 53 d1 56 3d 28 83 30 3f 23 ba b1 3e
       -1.2712979 0.05244572 0.6895013 0.34712324
0000e0 25 9e c1 bf 13 b2 8b bf 6c 48 23 3f ac 05 30 bf
       -1.5126387 -1.0913719 0.6378238 -0.68758655
0000f0 78 0b a6 3e 52 cb 2f 3f b1 27 c8 be f2 4a 63 3e
       0.32430625 0.6866962 -0.39092782 0.22196558

l3.bias f4 [8]
000000 24 44 91 bd 28 1b f8 be 22 09 de 3d 8f 54 17 3f
       -0.07093075 -0.4845822 0.10841586 0.591134
000010 24 69 4c 3e 00 2a ee be 23 4d 56 bc 87 25 85 bd
       0.19961983 -0.46516418 -0.013079914 -0.065012984
